_________________________________________________________________
Layer (type)                 Output Shape              Param #   
=================================================================
conv2d_1 (Conv2D)            (None, 1, 47, 256)        206080    
_________________________________________________________________
conv2d_2 (Conv2D)            (None, 1, 23, 256)        196864    
_________________________________________________________________
conv2d_3 (Conv2D)            (None, 1, 11, 256)        196864    
_________________________________________________________________
conv2d_4 (Conv2D)            (None, 1, 5, 256)         196864    
_________________________________________________________________
global_average_pooling2d_1 ( (None, 256)               0         
_________________________________________________________________
dense_1 (Dense)              (None, 168)               43176     
_________________________________________________________________
dense_2 (Dense)              (None, 168)               28392     
=================================================================
Total params: 868,240
Trainable params: 868,240
Non-trainable params: 0
_________________________________________________________________
Epoch 1/20
316s - loss: 1.9401 - acc: 0.4007 - val_loss: 0.9270 - val_acc: 0.6724
Epoch 2/20
276s - loss: 0.7122 - acc: 0.7524 - val_loss: 0.4829 - val_acc: 0.8398
Epoch 3/20
264s - loss: 0.4664 - acc: 0.8467 - val_loss: 0.3760 - val_acc: 0.8788
…
